model/fashion_mnist_cnn.pth (torch, 903833 bytes, 8 tensors)

conv1.weight f4 [32, 1, 3, 3]
0	0x3dbbfe26	0.09179334
1	0xbe85b9b9	-0.26118258
2	0x3e328466	0.17433318
3	0xbd29df12	-0.041472502
4	0xbe9ee7c0	-0.31036186
5	0x3e8bd13e	0.27308077
6	0x3e03f421	0.12886097
7	0xbf05c9d6	-0.522611
8	0x3efbc201	0.4917145
9	0xbe47741a	-0.19477883
10	0xbdba9f1c	-0.09112379
11	0xbe9b8fcb	-0.30383143
12	0xbe1f0720	-0.15530062
13	0xbd5ca5a7	-0.053868916
14	0xbe871688	-0.26384377
15	0x3ed466d9	0.41484717
16	0xbe3a2433	-0.18177871
17	0xbdb7d461	-0.08976055
18	0x3d68b4cf	0.056813058
19	0xbe07758f	-0.13228439
20	0xbe905df3	-0.28196678
21	0x3cee9f19	0.029128598
22	0xbec27ac4	-0.37984288
23	0xbea67e86	-0.32518405
24	0x3de44139	0.11145253
25	0xbe2c2933	-0.16812591
26	0xbe4a98b6	-0.19784817
27	0x3e971266	0.29506224
28	0xbe7f9f0f	-0.2496302
29	0xbe01ac4d	-0.12663384
30	0x3ebf96e9	0.37419823
31	0x3e6d54a1	0.23176815
32	0xbed18420	-0.40921116
33	0x3d17396d	0.03692
34	0xbe105546	-0.14095029
35	0xbd2e4f5a	-0.042556144
36	0x3ecb920d	0.39759865
37	0x3e8c9096	0.2745406
38	0xbd4cc5ac	-0.049993202
39	0x3e152366	0.14564285
40	0xbdc699e8	-0.09697324
41	0x3d810132	0.06299056
42	0xbf02c278	-0.51077986
43	0xbe169de3	-0.14708667
44	0x3a8fac20	0.0010961331
45	0x3efec128	0.49756742
46	0xbe3a0d39	-0.18169107
47	0xbebc8046	-0.36816615
48	0xbdb939eb	-0.0904425
49	0xbdf44356	-0.11926906
50	0x3ed6efcf	0.41979834
51	0xbf025b0e	-0.5092019
52	0xbe8998cd	-0.2687439
53	0x3ef083b3	0.4697548
54	0xbd41a39c	-0.04727517
55	0x3e98dfa5	0.29858127
56	0xbe66490c	-0.22488803
57	0x3e750827	0.23928891
58	0xbe4a2c54	-0.19743472
59	0x3e5ce6e0	0.21572447
60	0x3d84eea1	0.06490827
61	0x3e953d0b	0.29148135
62	0x3e8e8b5c	0.27840698
63	0x3ea1eb71	0.3162494
64	0xbe64fa58	-0.22361124
65	0x3db80d5f	0.08986925
66	0x3d6c97b6	0.05776187
67	0xbce31581	-0.027720215
68	0x3e260942	0.16214469
69	0xbe8b9541	-0.2726231
70	0xbeee6d45	-0.4656774
71	0x3edd6030	0.43237448
72	0x3e1241f8	0.14282978
73	0xbdf39c02	-0.118949905
74	0x3e1364aa	0.14393869
75	0x3cad53d3	0.021158135
76	0x3e89cf1c	0.26915824
77	0x3e927841	0.2860737
78	0xbc097c1d	-0.008391407
79	0xbda5dc51	-0.08098663
80	0xbed77626	-0.42082328
81	0xbecbace3	-0.3978034
82	0xbeb60ba8	-0.35555768
83	0xbe9b3a3d	-0.3031787
84	0xbde9b67b	-0.114117585
85	0xbe54c80a	-0.20779434
86	0x3e8604b1	0.26175454
87	0x3e9f642c	0.31131113
88	0x3ef10fa5	0.47082248
89	0x3e97aa24	0.29621994
90	0xbde005da	-0.10938616
91	0xbd89922e	-0.06717335
92	0x3c942831	0.018085571
93	0x3e4fd5e0	0.2029643
94	0x3ea9ddf9	0.33177164
95	0xbe094f04	-0.13409048
96	0xbebb1d62	-0.36545855
97	0x3dc04f9c	0.09390184
98	0x3e0cb2fd	0.13740154
99	0xbeb3ba0c	-0.3510288
100	0x3ee145a9	0.4399846
101	0x3e1c4d25	0.15263803
102	0xbe2ba51f	-0.16762207
103	0x3ed9bef9	0.42528513
104	0xbea7ca60	-0.32771587
105	0x3e202d90	0.1564238
106	0xbe03a4c2	-0.12855819
107	0x3c34b391	0.01102914
108	0xbcb47e6c	-0.022032939
109	0xbe8609b4	-0.26179278
110	0x3e9dc35c	0.3081311
111	0x3ec05cf8	0.3757093
112	0xbebb089e	-0.36530012
113	0xbd9a4ba6	-0.0753396
114	0x3e516204	0.20447546
115	0xbe617a3b	-0.22019283
116	0xbe469c59	-0.1939558
117	0x3e943e26	0.28953665
118	0xbebe4fe5	-0.3717033
119	0x3ddf0476	0.10889523
120	0x3e70eb64	0.23527294
121	0x3e25b906	0.16183862
122	0x3d0a4cc8	0.03376463
123	0xbcc49cd0	-0.024000555
124	0xbe52e173	-0.20593815
125	0x3e9ae731	0.3025451
126	0xbdcc941f	-0.09989189
127	0xbc76214f	-0.01502259
128	0xbddc8397	-0.10767286
129	0x3d72f4a3	0.059315335
130	0xbe0e59b7	-0.13901411
131	0x3e369a9c	0.17832416
132	0xbe227237	-0.15863882
133	0xbe9b1ccc	-0.30295408
134	0xbe16ca0e	-0.14725515
135	0xbf01c863	-0.5069639
136	0xbe6588de	-0.22415492
137	0x3dc19b8e	0.09453498
138	0xbf0434a2	-0.5164281
139	0xbebade71	-0.36497834
140	0x3eb13d9f	0.34617326
141	0xbd956c49	-0.072960444
142	0x3d7dedeb	0.061994474
143	0x3ec841a6	0.39112586
144	0xbee7a6bb	-0.45244393
145	0x3d9a6522	0.07538821
146	0x3ea1c544	0.31595814
147	0x3d96ec3a	0.073692754
148	0xbe0e7ae4	-0.13914067
149	0x3e963de2	0.29344088
150	0xbeabaf65	-0.33532253
151	0xbe538aae	-0.20658371
152	0x3ed5e011	0.41772512
153	0xbe02da61	-0.12778617
154	0x3ec5b4c1	0.38614467
155	0xbf0b084d	-0.5430954
156	0x3e2c5d8c	0.1683256
157	0x3dd45c77	0.10369199
158	0xbee7bd3f	-0.4526157
159	0x3ea6b711	0.32561544
160	0x3dd8e160	0.10589862
161	0x3d40e7c7	0.04709604
162	0x3da3ca76	0.07997601
163	0x3eb66149	0.35621098
164	0x3e42895b	0.1899771
165	0x3e09a170	0.1344049
166	0x3e9ec434	0.31009066
167	0x3de2c0eb	0.110719524
168	0x3debc389	0.11511905
169	0x3e811652	0.25212342
170	0xbdd69883	-0.10478308
171	0x3ec061c5	0.37574592
172	0xbd82ecd1	-0.063928254
173	0xbe3eb33e	-0.18623063
174	0xbe23ceb2	-0.15996817
175	0xbd84ed73	-0.06490602
176	0xbe9d1c3d	-0.30685607
177	0xbdd71917	-0.105028324
178	0x3d74d8b1	0.059776966
179	0xbe6c1a44	-0.23056895
180	0x3e4e69e9	0.20157589
181	0x3ebcd575	0.36881605
182	0x3e86784a	0.26263648
183	0x3e8af978	0.27143455
184	0x3e34e350	0.17664838
185	0x3da06ec4	0.07833627
186	0xbedc149a	-0.42984468
187	0xbf0a4f31	-0.54027086
188	0xbeda5c18	-0.42648387
189	0x3e68ba01	0.22727205
190	0x3e97bd71	0.2963672
191	0xbdf9acb4	-0.12191144
192	0x3e1a3477	0.15059076
193	0x3db60b90	0.08888924
194	0xbeb372a2	-0.35048395
195	0x3e86f247	0.26356718
196	0x3cd05562	0.025431339
197	0xbed72705	-0.42021957
198	0xbd6dd67a	-0.05806587
199	0xbda45b5d	-0.08025239
200	0xbef173f1	-0.4715877
201	0x3edd6cfb	0.43247208
202	0xbe9be13a	-0.30445272
203	0xbee8b099	-0.45447233
204	0x3e93266c	0.2874025
205	0x3ea7c766	0.32769316
206	0xbdd4246d	-0.1035851
207	0xbd8482aa	-0.06470235
208	0xbe0465bd	-0.12929435
209	0x3d8f0723	0.06983783
210	0xbe5de7f6	-0.21670517
211	0xbb7646ec	-0.0037578894
212	0x3d63857a	0.055547215
213	0xbd9f6f5d	-0.07784913
214	0x3e4b80ab	0.19873302
215	0x3e867d23	0.26267347
216	0xbe08c667	-0.13356934
217	0x3e836425	0.25662342
218	0xbdc0f75c	-0.0942218
219	0x3d1c8535	0.038212974
220	0x3f1471ab	0.57985944
221	0xbf1b0ec3	-0.605694
222	0x3e751b8a	0.23936287
223	0xbdaaf9c7	-0.083484225
224	0xbe2af967	-0.16696702
225	0xbef6385d	-0.48089877
226	0xbee61573	-0.4493824
227	0xbf070517	-0.5274214
228	0x3e923dae	0.28562683
229	0x3ef04a04	0.4693147
230	0x3e836c27	0.2566845
231	0x3de1bb20	0.110220194
232	0x3deffa98	0.11717719
233	0x3e3367cd	0.17520066
234	0xbd09d8ae	-0.033653907
235	0x3ee12754	0.43975317
236	0x3eb0250e	0.3440327
237	0xbec6c40e	-0.38821453
238	0x3ec90559	0.39261892
239	0xbe20f0ab	-0.15716808
240	0xbeea7ce2	-0.45798403
241	0x3d4b5972	0.04964585
242	0x3e8bae91	0.2728162
243	0x3ea07c6e	0.31344932
244	0xbef13610	-0.4711156
245	0xbcc8f92f	-0.024532882
246	0x3f0794bb	0.5296132
247	0xbf1c4fb8	-0.6105914
248	0x3e9f914a	0.31165534
249	0x3e9ff718	0.31243205
250	0xbed589a5	-0.41706577
251	0x3dacc13b	0.08435293
252	0xbd06345e	-0.032764785
253	0xbe26ce38	-0.16289604
254	0x3e70bbf8	0.23509204
255	0x3d015026	0.031570576

conv1.bias f4 [32]
0	0x3bdf0748	0.006806288
1	0xbe81868e	-0.2529797
2	0xbf2ad47b	-0.6673047
3	0x3d1db073	0.038498353
4	0x3de3a064	0.111145765
5	0xbe0eaf20	-0.13933992
6	0xbed8eb67	-0.42367098
7	0x3d0fb07a	0.03508041
8	0x3e981a54	0.29707587
9	0xbd0a5beb	-0.033779066
10	0x3e0764a2	0.13221982
11	0x3e50ddbc	0.20397085
12	0x3d35c0f1	0.044373456
13	0x3e555dfe	0.20836636
14	0xbeb7449c	-0.35794532
15	0xbf0b7eb8	-0.5449023
16	0x3d48a968	0.048989683
17	0xbc63a7eb	-0.013895015
18	0xbea0749b	-0.31338963
19	0xbec965c5	-0.39335456
20	0xbd664ca1	-0.056225423
21	0x3e8b86dd	0.2725133
22	0xbe9d9f27	-0.30785486
23	0x3d19f30f	0.037585314
24	0xbc7e7b02	-0.015532257
25	0xbd03465d	-0.032049526
26	0xbd0f45d6	-0.03497871
27	0xbc90a4b9	-0.01765667
28	0x3e08ef6d	0.13372584
29	0xbb8f2fe1	-0.0043697213
30	0xbe8b4b65	-0.2720596
31	0x3dbb1fc8	0.09136921

conv2.weight f4 [64, 32, 3, 3]
0	0xbd5411da	-0.051774837
1	0xbc2205f0	-0.009889111
2	0x3d4b9370	0.049701154
3	0xbcbf7f1b	-0.023376038
4	0xbcf7002a	-0.030151445
5	0xba3f13ac	-0.0007289003
6	0xbd9773b6	-0.07395117
7	0x3ca4a008	0.02009584
8	0xbd387432	-0.045032687
9	0xbc527ad0	-0.012846664
10	0xbd116f5a	-0.035506584
11	0x3b21b765	0.0024675962
12	0x3d6d816c	0.057984754
13	0x3d324a80	0.04352808
14	0x3d8173df	0.06320929
15	0x3d293d77	0.041318383
16	0x3d22f49f	0.03978407
17	0x3da1c6dc	0.078992575
18	0xbd258608	-0.040411025
19	0x3d4fc73b	0.05072711
20	0x3dcd3e9c	0.100217074
21	0xbd3f32b9	-0.046679232
22	0x3df4ed77	0.11959355
23	0x3dd75a76	0.10515301
24	0x3c3b7425	0.011441265
25	0x3df6db00	0.1205349
26	0x3dbbd08b	0.09170636
27	0xbad87d38	-0.001651681
28	0xbc2733bd	-0.010205206
29	0xbcdb327f	-0.026757477
30	0xbc03a287	-0.008034355
31	0x3c1cb3d7	0.009564362
32	0x3d74cf3a	0.05976794
33	0xbcddff18	-0.027099177
34	0x3d73b360	0.059497237
35	0x3d600d01	0.0546999
36	0xbb5d4f38	-0.0033769142
37	0x3b84be89	0.004051034
38	0xbb157af0	-0.0022808872
39	0x3e00c324	0.1257444
40	0x3cad6c30	0.021169752
41	0xbbf08d92	-0.0073410952
42	0xbd8a88e9	-0.06764395
43	0xbe2ce820	-0.16885424
44	0xbd4d058d	-0.05005412
45	0xbda55d84	-0.08074477
46	0x3cdcf1cd	0.026970768
47	0x3d5f3939	0.05449793
48	0x3d57795c	0.05260597
49	0x3d366dc5	0.044538278
50	0x3d8cde7b	0.06878372
51	0xbb8c7bd1	-0.004287221
52	0xbd3f2118	-0.04666242
53	0xbc9aae90	-0.018882066
54	0xbe417592	-0.18892506
55	0xbe04c993	-0.1296752
56	0x3d2d8e08	0.04237178
57	0xbe1f1e20	-0.15538836
58	0xbe5479a2	-0.20749524
59	0xbcb60630	-0.022219747
60	0xbe5c5f1e	-0.2152066
61	0xbe5d840e	-0.21632406
62	0xbdadc079	-0.08483977
63	0xbdc059c2	-0.0939212
64	0xbc3c7155	-0.01150163
65	0x3d7047de	0.058662288
66	0xbdb59bf0	-0.08867633
67	0xbb3c8b8e	-0.0028769705
68	0x3dab50ef	0.08365046
69	0xbd94c28c	-0.07263669
70	0xbd48c602	-0.04901696
71	0xbddf5c01	-0.1090622
72	0xbcc7b2e3	-0.024377292
73	0xbc63687f	-0.013879894
74	0x3d6b8aec	0.057505533
75	0x3bffbeec	0.007804742
76	0xbc806584	-0.015673406
77	0xbd443f7c	-0.047912106
78	0xbe125457	-0.14289986
79	0xbde2d441	-0.110756405
80	0x3dbe8058	0.093018234
81	0xbe2d60ee	-0.16931507
82	0xbe7bcdb6	-0.24590191
83	0xbe8d2b56	-0.27572125
84	0xbe1272c7	-0.14301597
85	0xbe20782c	-0.15670842
86	0xbd363ae5	-0.04448976
87	0xbdc880c1	-0.09790183
88	0x3be13b7a	0.0068735452
89	0xbd5a0710	-0.05322939
90	0xbdbea480	-0.0930872
91	0xbda5e7eb	-0.081008755
92	0xbceed3fb	-0.029153815
93	0xbe0fe74e	-0.1405308
94	0xbd80e56d	-0.062937595
95	0xbd0fd31a	-0.03511343
96	0xbe2a9209	-0.1665727
97	0xbe06e9fd	-0.13175197
98	0xbe08cf1f	-0.1336026
99	0xbc88d440	-0.016702771
100	0xbb7ac6a5	-0.0038265374
101	0xbd18a857	-0.037269916
102	0xbdce1976	-0.1006345
103	0xbe18e5bf	-0.14931391
104	0xbcc6acfe	-0.024252411
105	0xbe32f507	-0.17476283
106	0xbdb1c171	-0.08679474
107	0xbdaf6d0c	-0.08565721
108	0xbc802a1d	-0.015645081
109	0xbd395d18	-0.045254797
110	0x3d7c71fd	0.061632145
111	0xba2c1de5	-0.0006565734
112	0xbbe5e20c	-0.0070154723
113	0x3d245e5c	0.04012905
114	0x3c6eee96	0.0145832505
115	0x3c46d3bb	0.012135441
116	0x3d2b75c3	0.041860353
117	0xbdae87c8	-0.08521992
118	0xbcf636eb	-0.030055484
119	0xbc0b0c79	-0.00848686
120	0xbd92baa3	-0.071645044
121	0xbc947768	-0.018123344
122	0xbe0e3a70	-0.1388948
123	0xbe2ade81	-0.16686441
124	0xbd81df33	-0.063414
125	0xbe850406	-0.25979632
126	0x3d0204b8	0.03174278
127	0x3cefc46d	0.029268468
128	0x3c37f4b8	0.011227779
129	0x3d0a6c9d	0.033794988
130	0xbc9ac366	-0.018892001
131	0x3d9af43a	0.07566114
132	0x3d12d77c	0.035850033
133	0xbcfa14b7	-0.030527456
134	0x3dc07b19	0.09398479
135	0xbdc1be46	-0.0946012
136	0x3d137d50	0.03600818
137	0x3b5b0899	0.0033421873
138	0xbde6d185	-0.112704314
139	0xbca11478	-0.01966308
140	0x3dff9a5f	0.12480616
141	0xbcc728db	-0.024311474
142	0xbd5b539b	-0.05354653
143	0x3dd788c2	0.10524131
144	0xbdfff88f	-0.12498581
145	0xbb94c351	-0.004539885
146	0x3daa29f8	0.08308786
147	0xbe4d836b	-0.20069663
148	0xbd99503a	-0.07486005
149	0x3dd2a580	0.10285473
150	0xbdc0cd72	-0.094141856
151	0xbdb30be1	-0.087425
152	0x3c218a4a	0.009859631
153	0xbd1f98f0	-0.038964212
154	0x3d072cda	0.03300176
155	0x3d7bf8d6	0.061516605
156	0xbe0ead79	-0.13933362
157	0x3cfe0079	0.031006085
158	0xbcc4e7f7	-0.02403639
159	0xbe51e3fe	-0.20497128
160	0xbbd5c472	-0.0065236622
161	0x3acc8d83	0.0015606139
162	0xbdd2870b	-0.10279664
163	0xbe302781	-0.1720257
164	0xbe267fea	-0.16259733
165	0xbe1e0d31	-0.1543472
166	0xbe022c94	-0.12712318
167	0xbe045149	-0.12921633
168	0xbe4bbba1	-0.19895793
169	0xbe47abcc	-0.19499129
170	0xbe491169	-0.19635548
171	0xbd8c12ef	-0.06839549
172	0x3d5a519b	0.05330048
173	0x3d1b04bc	0.037846312
174	0xbd61ee97	-0.055159178
175	0x3cdf4058	0.027252361
176	0x3d96397f	0.07335185
177	0xbc0ca45f	-0.008584111
178	0x3cfbb595	0.030726233
179	0xbab443bc	-0.0013753097
180	0xbd448cf2	-0.04798598
181	0x3c55003e	0.013000546
182	0xbcfb4c19	-0.030675935
183	0x3de7a9b3	0.113116644
184	0x3c83033f	0.015992759
185	0xbe08cff9	-0.13360585
186	0xbe4dd110	-0.20099282
187	0xbea5d621	-0.3238993
188	0x3b91466b	0.0044334433
189	0x3c9fff97	0.019531054
190	0xbcb10257	-0.021607561
191	0x3db6c611	0.08924497
192	0xbd1240af	-0.03570622
193	0x3d354ce4	0.04426278
194	0x3cc63d7e	0.024199244
195	0xbde6fd4d	-0.11278782
196	0xbd1aa51b	-0.037755113
197	0x3d49ed85	0.049298782
198	0xbde8597e	-0.11345194
199	0x3c79af75	0.015239586
200	0x3db9da54	0.09074846
201	0x3b66382e	0.00351287
202	0x3e057ada	0.13035145
203	0xba81bbc8	-0.0009897882
204	0x3c3fb2c8	0.01170034
205	0x3cfe2226	0.031022143
206	0x3dc498f1	0.09599484
207	0xbd940085	-0.072266616
208	0xbc9a566a	-0.018840034
209	0xbbc0f0e9	-0.0058880937
210	0xbe25659e	-0.16152045
211	0xbd943e49	-0.072384425
212	0xbc9feb05	-0.019521246
213	0xbd53c0a7	-0.0516974
214	0xbce545aa	-0.02798732
215	0x3c60a7eb	0.01371191
216	0x3c4037de	0.01173207
217	0x3d825ea4	0.063657075
218	0x3db69af7	0.08916276
219	0xbe1932bb	-0.14960758
220	0x3db049e3	0.08607843
221	0x3e4b0b78	0.19828594
222	0xbe4fea9a	-0.20304337
223	0x3e22ebe2	0.15910295
224	0x3e82644e	0.2546715
225	0xbe257b58	-0.16160333
226	0xbea9bc0c	-0.3315128
227	0xbe566d9f	-0.20940255
228	0xbe0a0bee	-0.13481113
229	0xbe967747	-0.29387876
230	0x3ca1ee20	0.019766867
231	0xbdcfb6d6	-0.10142295
232	0xbd83d620	-0.064373255
233	0xbdba1858	-0.090866745
234	0xbe5fde90	-0.21862245
235	0xbe39e0b5	-0.18152125
236	0xbe030878	-0.127962
237	0xbd6ac6fa	-0.057318665
238	0xbcc99703	-0.02460814
239	0xbd04380f	-0.032280024
240	0xbe3351c3	-0.17511658
241	0xbd14a56a	-0.036290564
242	0xbd29c401	-0.04144669
243	0xbe181b50	-0.14854169
244	0xbd209b60	-0.039210677
245	0x3de9052d	0.1137794
246	0xbd584916	-0.052804075
247	0xbd0f9734	-0.035056308
248	0x3a77d7ee	0.0009454478
249	0xbd0c103c	-0.03419517
250	0xbdff0874	-0.12452784
251	0xbcd4366b	-0.025904855
252	0x3bc26c28	0.0059333034
253	0x3b0e3699	0.0021700023
254	0x3e04fa6d	0.12986155
255	0xbd95d554	-0.0731608

conv2.bias f4 [64]
0	0x3b83b0e2	0.004018889
1	0xbd015e9a	-0.03158436
2	0xbd8aaa39	-0.06770749
3	0xbd7ab7a9	-0.06121031
4	0xbdc6cc51	-0.09706939
5	0xbd8ed8c2	-0.06974937
6	0xbdb8b22b	-0.09018358
7	0xbd606bd0	-0.054790318
8	0xbd77df02	-0.06051541
9	0xbb161a97	-0.0022904032
10	0xbd1d144c	-0.038349435
11	0xbd515e15	-0.051115114
12	0x3a8a724d	0.0010562629
13	0xbc374ad7	-0.011187277
14	0x3d2f000b	0.04272465
15	0xbdac9765	-0.08427314
16	0x3d6d0479	0.057865594
17	0x3cee9f85	0.0291288
18	0xbe12742c	-0.14302129
19	0xbd72c760	-0.05927217
20	0x3e46e7ad	0.19424315
21	0x3d6b31c3	0.057420503
22	0x3cf43e4c	0.029814862
23	0xbe006d20	-0.12541628
24	0xbe062308	-0.13099301
25	0x3e21ef9e	0.15814063
26	0x3e2b975b	0.16756956
27	0x3cc8a5c3	0.024493104
28	0xbd98ac65	-0.07454757
29	0xbc671bc8	-0.014105745
30	0x3a517db5	0.0007991449
31	0xbda1b0b0	-0.078950286
32	0x3e192901	0.14957048
33	0xbd64496c	-0.055734083
34	0xbe07e157	-0.13269554
35	0xbd062718	-0.032752126
36	0x3ad0c7d1	0.001592869
37	0xbdbd9ccc	-0.09258422
38	0xbce1c470	-0.027559489
39	0xbca6ec65	-0.020376394
40	0x3d4e13b4	0.05031176
41	0xbd30a136	-0.043122493
42	0x3c532dd3	0.012889343
43	0xbd143d2a	-0.036191143
44	0x3cade0ee	0.021225419
45	0x3d8adc22	0.06780268
46	0xbdc55f8f	-0.09637367
47	0xb99ed1d6	-0.00030292448
48	0x3bc349c1	0.00595972
49	0x3c978002	0.018493656
50	0xbde78325	-0.11304311
51	0xbd55c42c	-0.052189037
52	0xbd31526b	-0.04329149
53	0xbdf53e88	-0.119748175
54	0xbd543fe0	-0.05181873
55	0xbe25d879	-0.16195859
56	0xbc622fb5	-0.01380532
57	0x3d8fde2f	0.070248
58	0xbd39a654	-0.04532464
59	0xbdb95238	-0.09048885
60	0xbd49d5b8	-0.049276084
61	0x3e1b4e9b	0.15166704
62	0x3de37825	0.111069
63	0xbb560897	-0.0032658929

fc1.weight f4 [128, 1600]
0	0xbb9a1496	-0.004702161
1	0xbd48e9a8	-0.049050957
2	0xbd0d62f2	-0.03451819
3	0xbd12734e	-0.035754494
4	0x3c806129	0.01567133
5	0xbd40061a	-0.04688082
6	0xbd8ddbbf	-0.06926679
7	0xbd012224	-0.0315267
8	0xbc522bfa	-0.012827868
9	0xbd7a785d	-0.061149944
10	0xbc795030	-0.015216872
11	0xbd62af90	-0.05534321
12	0xbd036508	-0.032078773
13	0xbd172265	-0.036898036
14	0x3d8fcc3a	0.07021375
15	0xbba8f395	-0.0051559904
16	0xbda05acb	-0.078298174
17	0xbc9299e7	-0.017895652
18	0x3c8952cd	0.016763115
19	0x3d6cc475	0.057804544
20	0xbd0f71ee	-0.03502076
21	0x3d31ca6b	0.04340593
22	0x3d7ffc44	0.06249644
23	0x3d695338	0.05696413
24	0x3ce1e122	0.027573172
25	0x3dddaa44	0.10823491
26	0x3d8dd4c5	0.06925348
27	0x3ce0cdf3	0.027441954
28	0x3d340bf1	0.0439567
29	0x3ca8a2bb	0.020585408
30	0x3daa27ab	0.08308347
31	0x3db09670	0.08622444
32	0xbb5d602a	-0.0033779242
33	0xbc98471e	-0.018588599
34	0x3d8f0d8c	0.06985006
35	0x3d2a7ff1	0.04162592
36	0x3ca89141	0.020577075
37	0x3cc982bc	0.024598472
38	0x3cb283e4	0.021791406
39	0x3d6b597d	0.05745839
40	0x3d557e4a	0.05212239
41	0x3b9b1ebc	0.0047338884
42	0xbc85a4af	-0.016313879
43	0xbd114c44	-0.035473123
44	0xbda93759	-0.0826251
45	0x3c23f105	0.010006194
46	0x3cbb2c4d	0.022848273
47	0x3ab97e14	0.0014151954
48	0xbdbe4894	-0.09291187
49	0xbe446372	-0.1917856
50	0xbd329af9	-0.043604825
51	0xbd28f429	-0.041248474
52	0xbd060e6d	-0.0327286
53	0x3cc77afa	0.024350632
54	0xbd14dc27	-0.036342766
55	0xbd775daf	-0.060392078
56	0x3d8e1287	0.069371276
57	0xbd55b1c0	-0.05217147
58	0x3cc5e062	0.024154846
59	0xbd25e300	-0.040499687
60	0xbcededb8	-0.029044017
61	0x3c829209	0.015938776
62	0xbd207014	-0.039169386
63	0xbca97994	-0.020687856
64	0x3e055870	0.13022017
65	0x3d7d5b32	0.06185455
66	0xba8b23ce	-0.0010615529
67	0x3d139d52	0.036038704
68	0x3de30640	0.110851765
69	0xbdab8100	-0.08374214
70	0x3e06d4d5	0.13167126
71	0x3c6998fb	0.014257665
72	0x3dff6332	0.12470092
73	0x3dcb8104	0.09936717
74	0x3d07f836	0.033195697
75	0x3d386b80	0.045024395
76	0x3cbea141	0.023270251
77	0x3d0ebc00	0.03484726
78	0xbc88a1e1	-0.016678752
79	0xbd692dea	-0.056928553
80	0xbd19cbec	-0.03754799
81	0x3db09b4c	0.086233705
82	0xbcdbe645	-0.0268432
83	0xbd839ea3	-0.06426742
84	0xbc8c5581	-0.017130615
85	0x3d20fab9	0.039301608
86	0x3cb35821	0.02189261
87	0xba9d29cb	-0.0011990605
88	0xbda2371d	-0.07920668
89	0x3d8410ba	0.06448503
90	0x3dfff66b	0.124981724
91	0x3d751584	0.059834972
92	0x3d5b06c2	0.05347324
93	0x3c75e9f1	0.015009389
94	0x3dfa0525	0.122080125
95	0x3cc9efad	0.02465042
96	0x3cfc91d7	0.03083126
97	0xba51d063	-0.00080037693
98	0xbc17666a	-0.009240726
99	0xbc7b9258	-0.015354715
100	0xbbebc32a	-0.007194896
101	0xbb274377	-0.002552239
102	0xbc59fb35	-0.013304521
103	0x3d057fda	0.032592632
104	0x3c21ad20	0.009867936
105	0xbd2d73b3	-0.042346667
106	0x3cce6ad0	0.025197417
107	0x3c9e1fba	0.019302238
108	0x3d1bb7bd	0.038017023
109	0xbc993f73	-0.018707013
110	0xbdcc4323	-0.09973743
111	0xbd73e8fa	-0.059548356
112	0x3b8a5d51	0.00422255
113	0xbd04fed0	-0.03246957
114	0x3da49634	0.080364615
115	0xbd46dd02	-0.048550613
116	0xbd3609c3	-0.044442903
117	0x3c2f85aa	0.01071302
118	0x3d2c6ec6	0.04209783
119	0x3dfc153f	0.1230874
120	0xbd557c90	-0.052120745
121	0x3cb2f0d3	0.02184335
122	0x3d9b412d	0.07580791
123	0x3d601f84	0.054717556
124	0x3d662457	0.056187
125	0xbd15f183	-0.036607277
126	0xbe1c7e9b	-0.15282671
127	0x3a6be484	0.000899859
128	0x3bbdd7f1	0.0057935645
129	0x3d212cec	0.03934948
130	0xbc428885	-0.011873369
131	0xbdbf6690	-0.09345734
132	0xbd8157b3	-0.063155554
133	0xbd2c01ff	-0.04199409
134	0x3e00799a	0.12546387
135	0xbd2d5f5a	-0.042327262
136	0xbba9f1f1	-0.0051863124
137	0xbcd6e040	-0.026229978
138	0x3d849561	0.06473804
139	0x3c4d23d0	0.012520745
140	0xbd8367aa	-0.06416257
141	0xbca52891	-0.020160945
142	0xbd0b2a5a	-0.033975936
143	0x3b9dc565	0.004814791
144	0xbca4be62	-0.020110313
145	0x3b17d6ee	0.002316888
146	0x3bfd9b73	0.0077394783
147	0x3cc8646a	0.024461944
148	0x3c2da187	0.010597593
149	0xbb52c6ee	-0.0032162028
150	0xbd21edb7	-0.039533343
151	0xbd2d675a	-0.04233489
152	0xbcdcba1b	-0.02694421
153	0xbd066fb3	-0.03282137
154	0x3c873d5c	0.01650875
155	0xbd1c4310	-0.038149893
156	0xbd3564dd	-0.044285644
157	0xbd56d9eb	-0.052453917
158	0x3d60c1e0	0.054872394
159	0xbda759cc	-0.08171424
160	0xbd8a6b87	-0.067587905
161	0xbd266ae0	-0.040629268
162	0x3da30b11	0.07961095
163	0x3daf28ee	0.085527286
164	0x3e46d862	0.19418481
165	0x3bf575db	0.007490856
166	0xbc818149	-0.015808718
167	0x3e265834	0.16244584
168	0x3e0bb560	0.13643408
169	0x3dd11f95	0.10211102
170	0xbc86de6e	-0.016463485
171	0xbc867ea4	-0.016417809
172	0x3d174b92	0.036937304
173	0x3d687d12	0.0567599
174	0x3cd22ddc	0.025656633
175	0x3c1d5a57	0.009604058
176	0x3bd1e707	0.0064057144
177	0xbc7ebfda	-0.015548671
178	0x3cb674c0	0.022272468
179	0x3c818e8a	0.015815038
180	0x3c120dc7	0.008914418
181	0xbc2814d9	-0.010258877
182	0xbce9cf02	-0.028541092
183	0x3c81c3d6	0.015840452
184	0x3cea214b	0.028580328
185	0x3c74ec42	0.014948906
186	0x3c8b177a	0.016978968
187	0x3ca6009f	0.020263968
188	0xba3877eb	-0.0007036912
189	0x3bf23b02	0.007392288
190	0xbc143578	-0.009045951
191	0xbacd1a2d	-0.001564806
192	0x3bded8af	0.006800733
193	0x3d074429	0.033023987
194	0x3c20c229	0.009811916
195	0xbc668b32	-0.014071273
196	0x3c762d20	0.015025407
197	0x3be79808	0.007067684
198	0xbced9ba6	-0.029004883
199	0xbc43e382	-0.011956098
200	0x3da84b1d	0.08217452
201	0xbc9df645	-0.01928247
202	0x3d1e527e	0.03865289
203	0x3d1dba87	0.038507964
204	0x3d3fb60c	0.046804473
205	0x3d22ad28	0.039715916
206	0xbddd1177	-0.10794347
207	0xbc73d3f0	-0.014882073
208	0xbda6a1f6	-0.0813636
209	0xbe110eed	-0.1416585
210	0x3e1b2f0c	0.15154666
211	0xbda195d2	-0.07889904
212	0x3c3de5f2	0.011590468
213	0xbc9408e3	-0.018070644
214	0x3d9481da	0.0725133
215	0x3e1788df	0.14798306
216	0x3d15e403	0.036594402
217	0x3ca09c8e	0.019605901
218	0xbc8b3510	-0.016993076
219	0x3bfc1d82	0.0076939473
220	0x3e1dd1f1	0.15412118
221	0x3d8d5980	0.069018364
222	0x3dba5bb5	0.09099523
223	0xbc2bb951	-0.010481195
224	0x3bca9f86	0.0061835675
225	0x3b5e69aa	0.0033937492
226	0x3cae88f7	0.021305544
227	0x3c977f88	0.018493429
228	0x3e166207	0.14685832
229	0x3cda95d6	0.026682775
230	0x3d77e25f	0.06051862
231	0x3d5d615a	0.05404792
232	0xbb7ffb45	-0.003905968
233	0x3d4d79df	0.050165053
234	0xbde9a619	-0.11408634
235	0x3e81e5e4	0.25370705
236	0x3d88064e	0.066418275
237	0xbdcefadd	-0.10106442
238	0xbd83de56	-0.064388916
239	0xbd94dbac	-0.072684616
240	0x3e5e7369	0.21723713
241	0xbb8a6577	-0.0042235213
242	0x3c39d6f5	0.011342754
243	0x3cc72941	0.024311664
244	0xbbbfe260	-0.0058558434
245	0x3c69d8f0	0.014272913
246	0xbd89378c	-0.06700048
247	0xbc449bb6	-0.012000015
248	0x3d1683dd	0.03674685
249	0x3e4037d4	0.18771297
250	0xbd62cc55	-0.055370647
251	0xbd712966	-0.05887737
252	0xbcb16d37	-0.021658523
253	0xbd89a47b	-0.06720825
254	0xbc4678cc	-0.012113761
255	0xbda254eb	-0.07926353

fc1.bias f4 [128]
0	0xbd93be3d	-0.072140194
1	0xbad28342	-0.0016060846
2	0xbc379e0a	-0.011207113
3	0x3d190b62	0.03736437
4	0x3cd28ca9	0.025701838
5	0x3d15a14d	0.03653078
6	0x3ba9dd01	0.0051838164
7	0xbb98468a	-0.004647081
8	0x3c582c9a	0.013194228
9	0x3c9e8308	0.01934959
10	0x3d8e2eff	0.069425575
11	0xbd045230	-0.032304943
12	0xbad9c6db	-0.001661505
13	0xbca71a6e	-0.020398345
14	0x3d2203bb	0.03955434
15	0xbc264d18	-0.0101502165
16	0x3cf3a22f	0.029740421
17	0x3b3eb8fe	0.0029101963
18	0xbcb9a41d	-0.022661263
19	0x3dd62587	0.104563765
20	0xbcc1abe3	-0.023641532
21	0x3c1dc7a2	0.009630116
22	0xbb1c849e	-0.0023882757
23	0x3d22e2d6	0.03976711
24	0x3df25019	0.11831684
25	0x3d0ab1f8	0.03386113
26	0xbc80899c	-0.015690617
27	0xbcdf3fd4	-0.027252115
28	0x3caeedc4	0.02135361
29	0x3d054533	0.032536697
30	0xbc6f3e0c	-0.0146021955
31	0x3d94ca6e	0.07265173
32	0x3d9f3b21	0.0777495
33	0xbbeb8984	-0.007188024
34	0xbd10d31f	-0.03535759
35	0xbcaec579	-0.021334397
36	0xbcfc35d9	-0.030787395
37	0x3c8ba105	0.017044554
38	0xbd0da60c	-0.034582183
39	0xbcdc2716	-0.026874106
40	0xb9e9dc1d	-0.0004460522
41	0xbc8dcee4	-0.017310567
42	0xbcc0311c	-0.023460917
43	0x3c0544cc	0.008134078
44	0x3dcb0578	0.099131525
45	0xbb485de1	-0.0030573534
46	0xbc9adb7e	-0.01890349
47	0xbb1e19ac	-0.0024124188
48	0xbce01b35	-0.027356723
49	0x3dbe5d00	0.09295082
50	0x3bacc3b1	0.0052723517
51	0x3d64468c	0.05573134
52	0xbd6d977a	-0.058005787
53	0x3d3504e8	0.044194132
54	0x3d27d9d1	0.04097921
55	0x3d638b88	0.05555299
56	0xbbace8b4	-0.005276764
57	0xbbb5a006	-0.005542758
58	0x3cf73bfd	0.030179972
59	0xba7832d7	-0.0009468025
60	0x3d150cb1	0.036389057
61	0x3d2cd896	0.04219874
62	0x3b93e1f5	0.00451302
63	0x3c35ee77	0.011104218
64	0x3db35680	0.08756733
65	0xbc1123df	-0.00885865
66	0x3da12615	0.07868592
67	0xbb05dae7	-0.0020424665
68	0x39e7330b	0.00044097783
69	0x3bb7909a	0.0056019546
70	0x3d3db659	0.04631648
71	0x3cb3b54d	0.021937037
72	0x3c2256fb	0.009908433
73	0x3cdfbc4a	0.027311463
74	0x3d5f255c	0.054478988
75	0xbcfe5317	-0.03104548
76	0xbcc0bfdf	-0.023528991
77	0xbcb27cd4	-0.021788038
78	0x3d096678	0.033544987
79	0x3d8324f9	0.06403536
80	0x3dbadbcd	0.09123955
81	0xbd021d43	-0.031766187
82	0xbc8f3e5f	-0.017485796
83	0x3b35a22b	0.0027715068
84	0x3b958c0e	0.004563815
85	0x3bc762f7	0.0060847956
86	0x3b8c2f45	0.004278096
87	0x3bd5270c	0.006504899
88	0xbc91245f	-0.017717538
89	0xbbde7e7a	-0.0067899795
90	0x3d60844a	0.05481366
91	0x3c3f6fe3	0.011684391
92	0x3d7b1fbb	0.061309557
93	0x3a9d2714	0.0011989796
94	0x3d1c46e5	0.038153548
95	0xb98d7e17	-0.0002698756
96	0xbc7f4b2a	-0.015581885
97	0xbb10a90f	-0.0022073423
98	0xbd0e6fa5	-0.03477444
99	0x3dcbad78	0.09945196
100	0xbd1edd61	-0.038785342
101	0x3cb9ffdb	0.02270501
102	0xb9a659c2	-0.00031728862
103	0x3c813f74	0.015777327
104	0x3d0d091b	0.03443251
105	0xbb81b3d8	-0.0039582066
106	0x3c588409	0.013215073
107	0x3d823873	0.06358423
108	0x3d807503	0.06272318
109	0x3cfbe8b9	0.03075062
110	0x3d3e6fc3	0.046493303
111	0x3cadfef5	0.021239737
112	0x3da9c4ce	0.08289491
113	0x3ccd727a	0.025079
114	0x3d99cc7b	0.07509705
115	0xbcbaeab7	-0.022816999
116	0xbd3754dc	-0.044758663
117	0x3bbd61be	0.005779474
118	0x3d8dc335	0.069219984
119	0x3c8af88b	0.016964218
120	0x3ddca328	0.10773307
121	0xbd090306	-0.03345015
122	0x3cdceeff	0.026969431
123	0x3d58df99	0.052947614
124	0x3d42f029	0.047592316
125	0xbcc0176b	-0.023448667
126	0x3d85c5dd	0.0653188
127	0xbd130f9e	-0.035903566

fc2.weight f4 [10, 128]
0	0x3d06d62c	0.032919094
1	0x3c197b2a	0.0093677435
2	0xbd2372a6	-0.03990426
3	0x3da220b2	0.079163924
4	0xbd97c235	-0.07410089
5	0x3dd56e3a	0.10421415
6	0x3d83a9b2	0.06428851
7	0x3d12a76b	0.035804193
8	0xbc1f140d	-0.00970937
9	0x3daf5126	0.085604
10	0x3c1b9ebd	0.009498295
11	0x3d9d0cfe	0.07668494
12	0x3d16425e	0.036684386
13	0x3d86099d	0.06544802
14	0xbe1af34a	-0.1513187
15	0xbd951267	-0.072789006
16	0xbd993a93	-0.07481875
17	0xbe63b4ac	-0.2223689
18	0x3cca5e3c	0.024703138
19	0xbd77b652	-0.06047661
20	0xbd308f89	-0.043105636
21	0x3d75b177	0.059983697
22	0xbd20fb72	-0.039302297
23	0x3dab7035	0.08371011
24	0x3daca7f2	0.084304705
25	0xbd6289cf	-0.055307206
26	0xbe248fcb	-0.16070478
27	0xbcbbfbf0	-0.022947282
28	0x3d20636f	0.039157327
29	0x3d02524f	0.031816777
30	0xbcc25369	-0.023721414
31	0xbe0a9426	-0.13533077
32	0xbe2f8e7c	-0.17144197
33	0x3d60916b	0.05482618
34	0xbceb9e05	-0.028761873
35	0xbe176eb5	-0.14788325
36	0x3b605029	0.0034227467
37	0x3dbd82ca	0.09253462
38	0x3c1065fe	0.008813379
39	0xbd061a66	-0.03274002
40	0x3d81cd4f	0.06337988
41	0x3d52d88d	0.05147605
42	0xbd2a2026	-0.041534565
43	0xbdacfc12	-0.08446516
44	0xbe380d87	-0.1797391
45	0x3dfb25b6	0.12263052
46	0x3dbdbc61	0.09264446
47	0x3dc4d8cd	0.09611664
48	0x3dcb8b61	0.09938694
49	0xbe10c46f	-0.14137433
50	0xbe2677d1	-0.16256644
51	0x3d4cd959	0.050011966
52	0x3daa94ee	0.08329187
53	0xbd932ed6	-0.071866676
54	0xbe250f76	-0.16119179
55	0x3ae60855	0.001755009
56	0xbde096e8	-0.10966283
57	0x3d98c0fa	0.07458682
58	0xbdbc13c3	-0.09183457
59	0xbd472e37	-0.04862806
60	0x3d69aed9	0.057051513
61	0xbe0ff310	-0.14057565
62	0xbd7d5f19	-0.06185827
63	0xbddd13ca	-0.1079479
64	0xbe217ce5	-0.157703
65	0x3d0fa456	0.035068832
66	0xbc68b894	-0.014204163
67	0x3d753e81	0.05987406
68	0x3d885514	0.06656852
69	0xbd7d3917	-0.061822023
70	0x3db47810	0.088119626
71	0x3dfc48ab	0.12318548
72	0xbd57fe9c	-0.05273305
73	0xbdb41e07	-0.0879479
74	0x3dc333cd	0.095313646
75	0x3de1c873	0.11024561
76	0x3d66a14e	0.056306176
77	0x3d93e15d	0.07220719
78	0x3e005afc	0.12534708
79	0x3d3807d2	0.044929333
80	0x3b12231c	0.002229876
81	0x3c8abcb2	0.01693568
82	0xbca38dcb	-0.019965073
83	0xbd6d4d2a	-0.057934918
84	0xbd4f7fe3	-0.05065907
85	0x3d2aef58	0.041732162
86	0x3d223111	0.039597575
87	0x3d903470	0.07041252
88	0x3d785026	0.06062331
89	0x3db7495b	0.08949538
90	0x3c1c80ea	0.00955222
91	0x3ceaf6da	0.028682161
92	0xbcd7bd4e	-0.026335385
93	0x3d6da2f7	0.058016744
94	0x3d56d9f3	0.052453946
95	0x3d52bce0	0.051449656
96	0xbe298556	-0.1655477
97	0xbd18b069	-0.037277613
98	0x3d02cb0c	0.03193192
99	0x3db27917	0.08714502
100	0x3c04d12e	0.008106513
101	0x3db987a1	0.09059072
102	0x3d7b8e36	0.06141492
103	0x3daacfb6	0.08340399
104	0xbe2e7a72	-0.17038897
105	0xbd6b2244	-0.057405725
106	0x3cb7b533	0.02242527
107	0x3dba9fbb	0.091124974
108	0xbd12ab8e	-0.03580814
109	0xbe509287	-0.20368396
110	0xbe2b2674	-0.16713887
111	0xbe141d73	-0.14464359
112	0x3db1f279	0.08688826
113	0xbe77db63	-0.24204783
114	0x3d93cdac	0.07216963
115	0xbdac2ce0	-0.08406997
116	0x3d6d4a6d	0.057932306
117	0x3d8a8a5d	0.06764672
118	0xbe016d95	-0.12639458
119	0xbdb6f466	-0.08933334
120	0xbe5f367c	-0.21798128
121	0xbe793876	-0.24337944
122	0x3dd42e4f	0.10360395
123	0xbe468631	-0.19387127
124	0xbe3c2f95	-0.18377526
125	0x3b6dad5d	0.0036266663
126	0x3d0b0b84	0.03394653
127	0xbe3ca688	-0.18422902
128	0x3c6e1a53	0.014532643
129	0x3c44143c	0.011967715
130	0xbdbf2a2e	-0.09334217
131	0x3dbc98cd	0.09208832
132	0xbd7b9217	-0.06141862
133	0xbe786e7e	-0.242609
134	0xbdda0e7a	-0.106472924
135	0xbc2a2bbb	-0.010386403
136	0x3d3b77f4	0.045768693
137	0x3d9ea5c2	0.077464595
138	0x3d723ed9	0.059141967
139	0xbd7b8794	-0.061408594
140	0x3d90e3ad	0.07074676
141	0xbd24431b	-0.04010306
142	0x3d4efe3e	0.050535433
143	0xbc89b057	-0.016807718
144	0x3cb52374	0.022111632
145	0xbe8c4dc2	-0.27403075
146	0xbd89719e	-0.06711124
147	0xbdc9b676	-0.09849255
148	0x3cfb6d5b	0.030691793
149	0xbe726b59	-0.23673762
150	0xbc864323	-0.016389435
151	0xbdbfef7f	-0.09371852
152	0xbe6d9921	-0.23202945
153	0x3caada6d	0.020856107
154	0x3dbf4bab	0.093406044
155	0xbd96a02c	-0.07354769
156	0xbe9871ac	-0.29774225
157	0xbe1af942	-0.15134147
158	0x3ccae76a	0.02476855
159	0x3dae270f	0.085035436
160	0xbe8bf8f8	-0.27338386
161	0x3b55d689	0.0032629094
162	0xbe604b6b	-0.2190377
163	0x3e072bbc	0.13200277
164	0xbd08962a	-0.033346333
165	0xbe8cd96f	-0.2750964
166	0xbd470767	-0.048591044
167	0x3da076dc	0.078351706
168	0xbc34fe33	-0.011046934
169	0x3d1bc7ff	0.038032528
170	0x3d0602bf	0.032717463
171	0xbd1a4d8f	-0.037671622
172	0xbea3c4ea	-0.3198617
173	0xbdf62628	-0.120189965
174	0xbdebb27b	-0.11508652
175	0xbe7f4ec0	-0.24932384
176	0x3de95ae9	0.11394293
177	0x3e1e24d2	0.15443733
178	0xbe4bfc67	-0.19920503
179	0xbd6cb02d	-0.0577852
180	0xbd5e8d26	-0.05433383
181	0xbe0e2bf6	-0.13883957
182	0xbd8e51ab	-0.06949171
183	0xbe62e78f	-0.22158645
184	0x3e394746	0.18093595
185	0x3d9a6419	0.07538623
186	0xbe99199b	-0.29902348
187	0x3d1964d6	0.03744968
188	0xbe2dd1eb	-0.16974609
189	0x3d0c5fb0	0.034270942
190	0x3deeb514	0.11655632
191	0xbd1b41c8	-0.03790453
192	0xbe4d0897	-0.20022808
193	0xbcb3beeb	-0.021941623
194	0x3df2bbbd	0.118522145
195	0x3cbbc617	0.022921605
196	0x3d83c49f	0.06433987
197	0xbc31daa6	-0.0108553525
198	0x3c5d8715	0.013520976
199	0x3e38d849	0.18051256
200	0xbd17bdeb	-0.037046354
201	0x3e65ce77	0.22442041
202	0xbdea80e2	-0.11450364
203	0x3d3484b2	0.04407186
204	0x3c91861a	0.01776414
205	0xbd4e36cb	-0.050345223
206	0x3e32ee97	0.17473827
207	0x3d33d503	0.043904316
208	0xbe9079f7	-0.28218052
209	0x3d8ed177	0.06973546
210	0x3e37fa03	0.17966466
211	0x3d500c2f	0.05079287
212	0xbd5bc718	-0.053656667
213	0xbd18a2e9	-0.03726474
214	0xbe6c553d	-0.23079391
215	0x3c2b2f17	0.010448239
216	0xbd584aed	-0.05280583
217	0xbc7d556d	-0.015462262
218	0xbe58835a	-0.21143857
219	0x3d2e6e03	0.042585384
220	0xbdad9139	-0.08474965
221	0x3db2d392	0.0873176
222	0x3d76cf91	0.060256545
223	0x3d3a3fd6	0.045471035
224	0xbeb7e5a5	-0.35917392
225	0x3d92343a	0.07138868
226	0x3d1d6146	0.038422845
227	0xbdda08a9	-0.10646183
228	0xbd86bf30	-0.06579435
229	0x3d916eb6	0.071011946
230	0xbe03eccf	-0.12883304
231	0xbe83e809	-0.25762966
232	0xbdf29c5e	-0.11846231
233	0x3d0b9bea	0.034084238
234	0x3e104ebe	0.14092538
235	0xbe346428	-0.17616332
236	0xbdbb4078	-0.09143156
237	0xbe744a9e	-0.23856589
238	0x3e0bddd7	0.13658844
239	0xbdf4ee44	-0.11959508
240	0xbe4ff9de	-0.2031016
241	0x3da4d3fc	0.08048245
242	0xbe5b3c6f	-0.21409772
243	0x3d8fbe47	0.070187144
244	0xbe465c45	-0.19371136
245	0x3e017cbe	0.12645242
246	0xbdcf4661	-0.101208456
247	0x3dbf6a37	0.09346431
248	0x3e331d4d	0.17491646
249	0xbb9a7f25	-0.004714864
250	0xbe97d0f2	-0.296516
251	0x3d86b88b	0.065781675
252	0x3ca03bf1	0.019559832
253	0xbd999053	-0.07498231
254	0xbe778b20	-0.24174166
255	0xbe61e320	-0.22059298

fc2.bias f4 [10]
0	0xbe3305df	-0.17482708
1	0xbe10d443	-0.14143471
2	0x3d42377f	0.047416206
3	0x3d123b5a	0.035701133
4	0xbce61e3e	-0.028090592
5	0xbdadec4c	-0.08492336
6	0x3dac0f52	0.084013596
7	0xb9868a2a	-0.00025661412
8	0x3dec78fb	0.11546513
9	0xbb49b997	-0.0030780786
